public/model/pre.onnx (onnx, 503275 bytes, 40 tensors)

dense1.weight f4 [30, 768]
0.0064694257 -0.0724638 -0.055095218 -0.082673855 0.053902697 0.08452459 -0.17095356 0.014092205
0.06758059 0.02662786 0.18136694 0.120178804 -0.14515072 -0.0063766106 0.07934791 0.0136248665
0.011846679 -0.10543102 0.009943853 0.044002276 -0.0893367 -0.04394113 -0.036927536 -0.047095932
-0.05890221 -0.091698155 0.009717444 0.25452888 -0.051482663 0.059674688 -0.07953697 0.020165646
-0.012426741 0.046259053 -0.093055904 -0.04128141 -0.026669817 0.042285435 0.04156687 0.10739191
-0.13732289 -0.05658425 -0.0015802506 0.05762898 -0.03283792 -0.02127016 -0.04032121 0.121474154
-0.04516787 -0.12907946 -0.07199108 -0.08025328 -0.021138513 -0.02258717 0.029588593 0.05800848
0.08155856 0.010217966 -0.099028856 0.002261345 -0.07465063 0.037301052 -0.06333725 0.047742408
-0.008919173 -0.17182553 0.11173735 0.07372259 -0.002325243 0.115002 0.12362304 0.009660619
0.05515416 -0.0027556224 -0.07066174 -0.0018787872 -0.043165114 -0.10034933 0.02954758 -0.073334135
0.0488494 0.13113187 -0.09555078 0.05872485 -0.078689985 -0.010770677 0.0610405 0.17370342
-0.094934985 0.018475205 0.10082047 -0.056774277 0.054449394 0.107627 0.022413587 0.039240453
0.04630034 -0.0666912 -0.15180808 0.0922949 0.012790096 0.03919896 0.09949844 -0.08806629
-0.14179203 0.009601931 0.029068075 0.12191423 -0.0026585772 0.19154115 0.039483726 -0.016969945
0.017086202 0.008009723 0.08746066 -0.048177067 0.03127151 0.16145332 0.15938878 0.020653807
-0.053396225 -0.098252065 -0.0043516248 0.042498186 0.012924719 0.02465399 -0.021682912 -0.01442222
0.0022183924 -0.00017193511 0.06191237 0.24765223 -0.13690719 0.026659586 -0.06705247 0.017302848
0.08974102 -0.009507426 0.03141054 0.070213936 0.0152049735 -0.008709721 -0.099971674 0.09639215
0.15467718 0.050475582 -0.0018170067 -0.13737804 -0.0069785025 0.1075403 -0.008045588 -0.03790479
-0.052865025 0.14552534 -0.12451697 -0.0015180057 -0.051459424 -0.057477903 -0.031635918 0.020187674
-0.025710791 -0.022663575 0.05206001 0.065893725 0.03022073 -0.143795 -0.00938485 -0.15387917
-0.042427626 0.025137706 0.075849384 -0.114441566 0.03077237 -0.035331976 0.07318287 0.012179254
-0.0879964 0.008080516 -0.09542872 -0.11340587 0.082896054 -0.06781417 0.047023617 -0.010676318
0.01018098 0.1795357 -0.15680325 -0.023107886 0.003397078 0.056425758 -0.13407524 -0.1201799
0.091329515 0.016234657 0.1068995 -0.020175055 -0.033769622 -0.052699264 -0.08085952 -0.23215008
-0.0028670218 -0.02540733 0.0643076 0.035919473 -0.09418783 0.03800387 -0.1230434 -0.0658664
-0.07374876 0.043332454 -0.014415156 -0.080564484 0.043014828 -0.054436963 0.09139547 -0.005252867
-0.10106189 -0.07287195 0.08849914 0.036866907 0.118741065 -0.027014391 -0.10917679 0.045212116
-0.1663272 -0.08116338 -0.073448494 -0.057225768 -0.18394287 0.085165344 0.10120126 -0.00014167331
0.048274636 0.039089642 0.022810703 0.13454825 -0.10443676 -0.05874642 0.2037346 0.11208201
-0.061464094 0.16334145 -0.0018680827 0.054366793 -0.03657453 0.017551102 0.07247897 -0.09441104
-0.0052706115 0.04151996 0.029476153 0.078685634 -0.03601568 0.08326316 0.17790797 -0.03888547
00000000: 7afd d33b e767 94bd 86ab 61bd e950 a9bd
00000010: 13c9 5c3d 3a1b ad3d 730e 2fbe fee2 663c
00000020: b167 8a3d ab22 da3c 41b8 393e 4e20 f63d
00000030: 64a2 14be e3f2 d0bb 2881 a23d d53a 5f3c
00000040: 9318 423c 38ec d7bd 8beb 223c bb3b 343d
00000050: 29f6 b6bd 9dfb 33bd 5441 17bd aae7 40bd
00000060: 7243 71bd 3ecc bbbd ea35 1f3c 9c51 823e
00000070: 7cdf 52bd 726d 743d 47e4 a2bd 6d32 a53c
00000080: 8899 4bbc 227a 3d3d 1894 bebd b216 29bd
00000090: a97a dabc 7e33 2d3d 0642 2a3d 4af0 db3d
000000a0: 5f9e 0cbe e3c4 67bd 6920 cfba 5e0c 6c3d
000000b0: 0e81 06bd c23e aebc da27 25bd 71c7 f83d
000000c0: f201 39bd 682d 04be 0f70 93bd d55b a4bd
000000d0: ad2a adbc bb08 b9bc c763 f23c 4d9a 6d3d
000000e0: 2d08 a73d 4169 273c a4cf cabd 1333 143b
000000f0: 6ee2 98bd fdc8 183d f6b6 81bd 8b8d 433d
00000100: b921 12bc 08f3 2fbe 8dd6 e43d dffb 963d
00000110: 1b63 18bb 2b86 eb3d 142e fd3d 9347 1e3c
00000120: 54e9 613d ac97 34bb 1ab7 90bd a341 f6ba
00000130: e7cd 30bd f383 cdbd c40d f23c 3530 96bd
00000140: 4f16 483d 6f47 063e 21b0 c3bd 7889 703d
00000150: 3728 a1bd 7e77 30bc 9a05 7a3d 4fdf 313e
00000160: 466d c2bd 5059 973c f67a ce3d 258c 68bd
00000170: 5406 5f3d 8b6b dc3d b39c b73c 99ba 203d
00000180: 6da5 3d3d 6595 88bd 9473 1bbe 1c05 bd3d
00000190: 8d8d 513c 178f 203d d7c5 cb3d 195c b4bd
000001a0: ee31 11be 6b51 1d3c 2c20 ee3c 2bae f93d
000001b0: 863b 2ebb 5d23 443e b0b9 213d 8e04 8bbc
000001c0: 5df8 8b3c 373b 033c 931e b33d 5155 45bd
000001d0: 8e16 003d 0554 253e d036 233e 2c32 a93c
000001e0: 00b6 5abd 6138 c9bd 1398 8ebb 9412 2e3d
000001f0: 33c2 533c 2af7 c93c 5da0 b1bc 2d4b 6cbc
00000200: 7362 113b 7b49 34b9 d397 7d3d 8c98 7d3e
00000210: 6631 0cbe 3465 da3c ce52 89bd b4be 8d3c
00000220: 24ca b73d 09c5 1bbc 57a8 003d 53cc 8f3d
00000230: 481e 793c 38b3 0ebc f3bd ccbd 3f69 c53d
00000240: b263 1e3e 7cbf 4e3d a128 eeba d4ac 0cbe
00000250: ecab e4bb 173e dc3d a4d1 03bc 0e42 1bbd
00000260: ff88 58bd 9804 153e c102 ffbd d2f7 c6ba
00000270: 1ec7 52bd f36d 6bbd aa94 01bd 9f60 a53c
00000280: 709f d2bc f6a8 b9bc e13c 553d 4af3 863d
00000290: 7791 f73c ff3e 13be eac2 19bc 8092 1dbe
000002a0: 97c8 2dbd 97ed cd3c ec56 9b3d 5760 eabd
000002b0: 5616 fc3c 43b8 10bd e7e0 953d 7e8b 473c
000002c0: 7537 b4bd 2464 043c 2270 c3bd 5641 e8bd
000002d0: 68c5 a93d 28e2 8abd d69b 403d b9eb 2ebc
000002e0: 20ce 263c 35d8 373e 0891 20be c04c bdbc
000002f0: 83a1 5e3b b21e 673d 054b 09be e120 f6bd
00000300: f80a bb3d 8bfe 843c 20ee da3d 2846 a5bc
00000310: 0452 0abd 2fdb 57bd ad99 a5bd c0b8 6dbe
00000320: a5e4 3bbb 0823 d0bc b4b3 833d 4c20 133d
00000330: 8de5 c0bd f2a9 1b3d 2efe fbbd f7e4 86bd
00000340: 9709 97bd 5f7d 313d 8c2d 6cbc fefe a4bd
00000350: 5130 303d 4bf9 5ebd 8c2d bb3d 3e20 acbb
00000360: 89f9 cebd e43d 95bd 0a3f b53d c101 173d
00000370: 842e f33d 494d ddbc 1598 dfbd 5730 393d
00000380: ad51 2abe fc38 a6bd 2a6c 96bd 9165 6abd
00000390: 855b 3cbe 2b6b ae3d 9b42 cf3d 248e 14b9
000003a0: a0bb 453d 761c 203d 83dd ba3c 04c7 093e
000003b0: f1e2 d5bd 16a0 70bd ce9f 503e 418b e53d
000003c0: c6c1 7bbd fb42 273e 74da f4ba b7af 5e3d
000003d0: 2dcf 15bd 54c7 8f3c db6f 943d 935a c1bd
000003e0: 18b5 acbb d510 2a3d f977 f13c ef25 a13d
000003f0: 2d85 13bd e085 aa3d 822d 363e 5f46 1fbd

dense1.bias f4 [30]
0.011891762 -0.021119798 -0.012448309 -0.0049851257 0.05172159 -0.011840279 -0.01994128 -0.0026924887
-0.003075884 -0.042112783 0.012126769 0.015991574 0.016614027 -0.0670521 0.033942603 0.023964861
-0.014634763 -0.0031246375 -0.030293798 -0.030478422 0.041996732 0.012886694 -0.041473098 0.058572453
-0.04938845 -0.063692465 0.025568873 -0.00205888 -0.028537069 -0.00015925757
00000000: aad5 423c 6d03 adbc fef3 4bbc 445a a3bb
00000010: 05da 533d bbfd 41bc e55b a3bc 7774 30bb
00000020: c594 49bb 747e 2cbd 5baf 463c c300 833c
00000030: 241a 883c 9d52 89bd 6607 0b3d f551 c43c
00000040: a5c6 6fbc b8c6 4cbb b32a f8bc e2ad f9bc
00000050: c404 2c3d b622 533c b2df 29bd abe9 6f3d
00000060: 8b4b 4abd 3271 82bd d075 d13c 46ee 06bb
00000070: 92c6 e9bc 61fe 26b9

dense2.weight f4 [30, 768]
-0.12482753 -0.18223882 0.06817597 0.045863274 0.00508173 0.03884145 -0.008839865 0.013336716
-0.22975929 -0.043187976 0.05628204 0.036055613 0.02722334 0.008885939 0.18887684 0.0083625065
0.05342365 -0.08975302 0.25664002 -0.06840147 0.002326211 0.06212489 -0.03875048 0.123101056
-0.02097443 -0.037599355 -0.16320473 -0.16914712 0.07497363 0.076506644 0.07309823 0.001570281
0.12834813 -0.0034956443 -0.12993135 -0.014369972 0.018592991 -0.17886552 0.10478036 0.02680459
-0.09328505 -0.09225707 0.22232224 -0.000880815 -0.02003364 -0.083179705 0.052061435 -0.11472851
-0.038796965 -0.13100334 0.17049055 -0.0015229661 -0.02188276 0.022249158 -0.13625205 -0.11016773
0.04528485 0.06535915 0.04419394 0.035349328 0.11650741 0.26698598 0.21486619 -0.004939451
-0.01836608 0.026937239 -0.04918534 0.026527207 0.01756034 -0.15225081 0.07062787 0.14602834
0.12090327 -0.02555866 0.05498683 0.025448753 -0.07003105 -0.046779346 0.011423718 -0.051377933
0.071243085 -0.06584995 -0.052909512 0.15425147 0.22601517 -0.032585036 0.013488311 0.06957136
0.08349095 0.06450877 0.080371186 0.026661184 -0.10040096 0.056333132 -0.15925573 0.1898619
0.04043001 0.059179842 -0.0720765 -0.053557046 0.23285535 0.12019266 0.054951802 0.0012854744
-0.18197884 -0.021908691 -0.09353674 0.12165237 0.049555294 0.05998285 0.24142198 0.1389793
-0.077434845 0.07947983 0.0031496498 -0.028071117 0.017885357 -0.035432015 0.09300691 0.061152183
-0.20283327 0.10298734 -0.03418698 0.10425567 -0.04633912 -0.055643283 0.20875937 0.06594796
0.1810203 -0.26926845 0.012387745 0.1685242 -0.17446598 -0.10914475 0.013336716 -0.07506774
0.047867823 0.00525718 -0.030467149 0.042298485 -0.022644892 0.011593103 0.08438343 0.011243575
-0.023810817 -0.025457216 -0.09279684 -0.071860954 0.02866249 0.02645827 -0.031505827 0.23495243
-0.15144344 0.06366066 -0.111308515 0.05288722 0.11730268 0.19082032 0.11741902 -0.06544471
-0.06372384 0.007912159 -0.07805198 -0.068990685 -0.15357728 -0.015049396 0.020440554 0.04922392
0.07302528 0.09988389 0.048217848 -0.033992272 0.007998593 0.17722344 -0.19002008 -0.066034324
0.016051717 -0.072796136 -0.009171168 -0.0776616 -0.02955721 -0.039717317 -0.06522137 -0.0030273967
-0.0063146125 0.03616512 0.050395954 0.07356151 0.04660397 -0.033258032 0.089645624 -0.014934416
-0.053164817 -0.04301051 -0.031749453 -0.01975797 -0.10244042 0.045491226 0.09665299 -0.16254216
-0.008078457 0.09158937 0.1187367 0.16066004 0.10350398 0.16104992 -0.10325427 -0.108329184
0.16923888 0.004377585 0.10759521 0.25077638 0.026031464 0.07397554 -0.053542532 -0.01765763
-0.107708625 0.032203075 0.0015431094 -0.0059396024 -0.0868246 0.13053618 -0.2554381 -0.04850369
0.0322951 -0.046977434 0.09762451 -0.102545656 -0.12888998 -0.013704007 0.09424188 -0.21487854
0.09582699 -0.12039022 0.02769015 0.07289677 -0.11920252 0.19854575 0.18634199 -0.25464243
0.029845022 -0.09723094 -0.050424263 0.24283716 -0.084442005 -0.16340154 -0.11760105 -0.044733517
-0.11467708 0.03171697 0.14755441 0.06459005 0.037030008 0.020025278 -0.014408926 -0.076388575
00000000: 93a5 ffbd d09c 3abe d89f 8b3d 21db 3b3d
00000010: a484 a63b 3618 1f3d 15d5 10bc 3e82 5a3c
00000020: 0546 6bbe e0e5 30bd ff87 663d 0daf 133d
00000030: 7b03 df3c 5496 113c ee68 413e e502 093c
00000040: c2d2 5a3d 6ed0 b7bd 5266 833e 1216 8cbd
00000050: 5873 183b ab76 7e3d d3b8 1ebd 681c fc3d
00000060: 91d2 abbc c801 1abd 241f 27be e734 2dbe
00000070: c68b 993d 84af 9c3d 86b4 953d e3d1 cd3a
00000080: b16d 033e 2e17 65bb b90c 05be 0870 6bbc
00000090: 5450 983c 8628 37be 1697 d63d 4d95 db3c
000000a0: 3b0c bfbd 46f1 bcbd 71a8 633e 7ee6 66ba
000000b0: 971d a4bc 1f5a aabd 5f3e 553d c8f6 eabd
000000c0: 91e9 1ebd bd25 06be 1395 2e3e 439e c7ba
000000d0: 7943 b3bc de43 b63c a885 0bbe 9e9f e1bd
000000e0: 9b7c 393d 05db 853d b404 353d 75ca 103d
000000f0: 709b ee3d 63b2 883e e205 5c3e 1edb a1bb
00000100: 7674 96bc 7cab dc3c 9176 49bd 964f d93c
00000110: b4da 8f3c a3e7 1bbe 58a5 903d 7488 153e
00000120: 229c f73d 6560 d1bc df39 613d e779 d03c
00000130: 706c 8fbd b39b 3fbd 8c2a 3b3c ab71 52bd
00000140: e5e7 913d 57dc 86bd a5b7 58bd 19f4 1d3e
00000150: 8570 673e e377 05bd 14fe 5c3c 6e7b 8e3d
00000160: 4efd aa3d 2d1d 843d a699 a43d 8e68 da3c
00000170: 059f cdbd 92bd 663d ef13 23be 286b 423e
00000180: f099 253d 9066 723d d89c 93bd a25e 5bbd
00000190: a271 6e3e 9227 f63d 2415 613d 5d7d a83a
000001a0: a958 3abe db79 b3bc 3190 bfbd e124 f93d
000001b0: 7efa 4a3d 94b0 753d 5337 773e 9750 0e3e
000001c0: 2996 9ebd 52c6 a23d 5b6a 4e3b 66f5 e5bc
000001d0: 5084 923c 2921 11bd 687a be3d b67a 7a3d
000001e0: 86b3 4fbe 07eb d23d a607 0cbd ff83 d53d
000001f0: 17ce 3dbd 36ea 63bd 04c5 553e b90f 873d
00000200: 635d 393e 8edd 89be f8f5 4a3c 9c91 2c3e
00000210: 36a7 32be 4887 dfbd 3e82 5a3c 1ebd 99bd
00000220: 0d11 443d 6c44 ac3b 3e96 f9bc 2d41 2d3d
00000230: c881 b9bc 00f1 3d3c 38d1 ac3d f936 383c
00000240: e70e c3bc a78b d0bc 450c bebd d62b 93bd
00000250: 99cd ea3c 04bf d83c 410c 01bd 5f97 703e
00000260: fd13 1bbe 8560 823d b8f5 e3bd 45a0 583d
00000270: 633c f03d 6766 433e 6279 f03d e007 86bd
00000280: a581 82bd 00a2 013c b7d9 9fbd fd4a 8dbd
00000290: 5d43 1dbe be91 76bc f372 a73c 059f 493d
000002a0: 478e 953d ed8f cc3d 1480 453d 7b3b 0bbd
000002b0: 880c 033c 107a 353e a094 42be 013d 87bd
000002c0: e47e 833c 2416 95bd ab42 16bc 0c0d 9fbd
000002d0: f621 f2bc a0ae 22bd c892 85bd 4a67 46bb
000002e0: cfea cebb e021 143d fd6b 4e3d 6ba7 963d
000002f0: cee3 3e3d 9339 08bd 2098 b73d 7baf 74bc
00000300: 5ac3 59bd ca2b 30bd b70b 02bd 77db a1bc
00000310: 48cc d1bd 0255 3a3d 01f2 c53d 7471 26be
00000320: 815b 04bc 3593 bb3d 3a2c f33d 1184 243e
00000330: e5f9 d33d 45ea 243e fa76 d3bd b1db ddbd
00000340: f54c 2d3e d871 8f3b e15a dc3d c365 803e
00000350: f03f d53c 7d80 973d 6a4f 5bbd bca6 90bc
00000360: 5796 dcbd 5fe7 033d 2942 ca3a ffa0 c2bb
00000370: 19d1 b1bd 47ab 053e c8c8 82be ceab 46bd
00000380: de47 043d 696b 40bd 5cef c73d 7503 d2bd
00000390: bcfb 03be c586 60bc e301 c13d 1f09 5cbe
000003a0: f140 c43d 268f f6bd 74d6 e23c e74a 953d
000003b0: 7320 f4bd 944f 4b3e 6fd0 3e3e 7e60 82be
000003c0: 8c7d f43c 0421 c7bd ac89 4ebd 4eaa 783e
000003d0: eeef acbd bc52 27be d2d8 f0bd 7e3a 37bd
000003e0: d1db eabd a7e9 013d 8118 173e ca47 843d
000003f0: c7ac 173d 0d0c a43c 6a13 6cbc 9d71 9cbd

dense2.bias f4 [30]
0.0008561259 -0.03469727 -0.016947951 0.024687314 -0.026062319 0.041714367 -0.02588453 -0.01401075
0.027082225 -0.008069454 -0.024824208 -0.027377434 -0.028598778 0.033489853 -0.024752125 0.048724424
0.02022433 0.0539071 0.0037945046 0.023660269 -0.0070391484 0.014455232 -0.01144473 0.047081273
0.010316263 0.011773015 -0.0037538207 -0.047873512 -0.024129676 0.031217372
00000000: a36d 603a b91e 0ebd 6ed6 8abc 0d3d ca3c
00000010: a580 d5bc afdc 2a3d cb0b d4bc 588d 65bc
00000020: 8bdb dd3c be35 04bc 235c cbbc a446 e0bc
00000030: fc47 eabc a82c 093d f8c4 cabc 4393 473d
00000040: 7ead a53c b1cd 5c3d 39ad 783b 2ed3 c13c
00000050: a8a8 e6bb a3d5 6c3c ad82 3bbc 4bd8 403d
00000060: 8b05 293c 9be3 403c a902 76bb 0417 44bd
00000070: 99ab c5bc 93bb ff3c

dense3.weight f4 [30, 768]
-0.105469845 0.02401485 0.046802744 -0.11099325 0.091408305 -0.10459782 -0.05796269 0.10204124
0.21098618 0.20381986 0.10085637 0.13044758 -0.16293207 -0.06537582 -0.09155309 0.04379954
0.016697694 0.06424646 -0.18252586 -0.03824472 0.08587185 0.015778366 -0.057841092 0.12677626
-0.1453891 -0.051444296 -0.103586346 0.07755259 -0.020453034 -0.11754738 0.07949623 0.04277684
-0.101322874 0.016090065 -0.13513434 0.054021645 -3.607385e-05 0.1742802 -0.0933139 0.2200673
0.007821742 0.034332253 -0.18405463 -0.08298503 -0.03245259 -0.02974486 0.23096605 -0.08712759
0.015069784 -0.09876365 0.05204421 -0.018868173 -0.3178624 0.020496236 -0.056010347 0.014296349
0.07473378 -0.22923951 0.012072863 0.20131454 0.12601642 0.0045813755 0.13354775 -0.12148686
0.037149303 -0.0070610913 -0.062428854 0.08647001 -0.072562724 -0.063309476 0.15973969 -0.108363
-0.19945219 -0.15637322 0.044101633 -0.08854215 -0.16280939 0.10817495 -0.15777215 -0.023941033
0.03234785 -0.2164084 -0.14621283 0.007687784 -0.15051696 0.088274926 0.22804224 0.005557435
0.03116174 0.20731337 -0.036338396 -0.10079543 0.10267515 -0.19623047 -0.092342615 -0.0026715032
-0.20674288 0.107903056 0.16007654 -0.006162937 0.01520062 0.012036399 0.17830445 -0.061253652
-0.09420744 0.02410611 0.026750062 -0.06007355 0.17828242 0.115610056 0.08173826 0.04909019
0.16513836 0.1718985 -0.02154977 0.05551989 -0.009138008 -0.013554787 0.076928146 -0.105080694
-0.06146938 -0.073037185 -0.10786132 -0.051948585 -0.003152102 -0.30217007 0.0995002 -0.080400616
-0.06831643 -0.037134845 0.07158108 0.007761022 -0.03203006 -0.047887195 0.2570668 -0.06491104
0.18301997 0.009372485 -0.12570357 0.036998734 0.04136772 0.027303156 -0.0017109177 0.34416917
-0.06266096 -0.020759137 -0.04840535 -0.043353442 -0.19272114 -0.00075329276 0.069979236 0.074047916
-0.325593 -0.08993134 0.046356995 0.03556391 -0.26687074 0.105842635 -0.030488512 0.02254839
-0.05444999 -0.06808712 -0.017422609 -0.27651256 -0.09307547 -0.019817313 0.0041251597 -0.26441538
0.05043568 -0.028958688 -0.082863875 0.10290763 -0.016039966 0.066757664 0.0118932575 0.0128129935
0.1364476 0.047876813 0.11724556 -0.12694003 0.016041815 0.0025943816 -0.08589823 -0.045988016
-0.043802805 0.1187555 -0.1525763 -0.20548436 -0.03669974 -0.028911512 -0.07860972 0.0032027583
0.016045228 0.01851589 -0.057785355 -0.023866987 0.07673725 0.12835349 0.031568315 -0.34539002
0.022123318 -0.19536231 -0.03484909 0.1622467 -0.042589802 0.06671563 -0.16377531 0.0077982997
-0.022652285 0.057188205 0.04540861 0.062308487 -0.015805518 -0.04286496 0.02922618 0.121471055
-0.0023890676 -0.09639531 0.020164356 -0.10562261 0.120704435 -0.12935236 -0.019328658 0.04190755
0.10097019 -0.051441513 0.16964914 0.025264127 -0.0932943 -0.046805225 -0.08221887 -0.20289515
-0.17084263 -0.012752606 -0.11267293 -0.059031107 0.08735862 0.16887642 0.24830797 -0.02627673
0.01750769 -0.1108898 0.112974524 -0.072443314 -0.022886371 -0.09261975 0.06691344 0.0035729746
0.18225864 -0.07726855 0.009522162 0.026527531 0.104084805 0.03647644 0.20847182 -0.08449233
00000000: 9300 d8bd caba c43c 3cb4 3f3d 6e50 e3bd
00000010: 4734 bb3d 6237 d6bd 496a 6dbd fffa d03d
00000020: c30c 583e 27b6 503e c98d ce3d 0d94 053e
00000030: aad7 26be c2e3 85bd 3080 bbbd 2567 333d
00000040: 9ac9 883c a693 833d 0fe8 3abe 7fa6 1cbd
00000050: 95dd af3d a241 813c c8ea 6cbd a3d1 013e
00000060: e1e0 14be 41b7 52bd 1425 d4bd e4d3 9e3d
00000070: 1f8d a7bc aebc f0bd ebce a23d c536 2f3d
00000080: 5e82 cfbd 50cf 833c a860 0abe cd45 5d3d
00000090: 004e 17b8 8276 323e 5c1b bfbd 5359 613e
000000a0: c426 003c fa9f 0c3d d178 3cbe 0ef4 a9bd
000000b0: 02ed 04bd 7eab f3bc 5d82 6c3e f36f b2bd
000000c0: 41e7 763c 9944 cabd 4f2c 553d 6d91 9abc
000000d0: dcbe a2be b9e7 a73c 1b6b 65bd 3c3b 6a3c
000000e0: 060e 993d c3bd 6abe 42cd 453c 6625 4e3e
000000f0: 730a 013e 5d1f 963b bec0 083e 1ace f8bd
00000100: de29 183d ba60 e7bb 66b5 7fbd 3017 b13d
00000110: c49b 94bd 66a8 81bd cd92 233e 6ced ddbd
00000120: 323d 4cbe 4d20 20be eaa3 343d 9655 b5bd
00000130: 81b7 26be d48a dd3d 068f 21be fc1f c4bc
00000140: 2e7f 043d 2a9a 5dbe d1b8 15be cee9 fb3b
00000150: 1e21 1abe 7cc9 b43d e883 693e 251b b63b
00000160: e846 ff3c f549 543e 92d7 14bd d66d cebd
00000170: 5947 d23d a4f0 48be 201e bdbd 6314 2fbb
00000180: 68b4 53be 47fc dc3d 1beb 233e 76f2 c9bb
00000190: 050c 793c 5134 453c 7195 363e 1ce5 7abd
000001a0: d5ef c0bd 2d7a c53c f222 db3c af0f 76bd
000001b0: ab8f 363e f7c4 ec3d 6466 a73d cc12 493d
000001c0: 081a 293e 2906 303e 2589 b0bc d368 633d
000001d0: 95b7 15bc e614 5ebc 818c 9d3d 8c34 d7bd
000001e0: 51c7 7bbd 8594 95bd 65e6 dcbd 0ac8 54bd
000001f0: 7f93 4ebb 09b6 9abe c3c6 cb3d 14a9 a4bd
00000200: 7ce9 8bbd b51a 18bd 1a99 923d 2c50 fe3b
00000210: f431 03bd 5d25 44bd 429e 833e 14f0 84bd
00000220: 9669 3b3e 0d8f 193c 70b8 00be fc8b 173d
00000230: 3371 293d deaa df3c df40 e0ba f136 b03e
00000240: 6454 80bd 110f aabc b044 46bd 6193 31bd
00000250: b158 45be 9f78 45ba 4651 8f3d 6fa6 973d
00000260: 20b4 a6be ec2d b8bd d5e0 3d3d 76ab 113d
00000270: 48a3 88be 06c4 d83d 0bc3 f9bc 67b7 b83c
00000280: f406 5fbd 4371 8bbd dcb9 8ebc 0e93 8dbe
00000290: 5a9e bebd eb57 a2bc 592c 873b 7461 87be
000002a0: a595 4e3d c53a edbc 89b4 a9bd 3cc1 d23d
000002b0: 3f66 83bc 3eb8 883d f0db 423c 97ed 513c
000002c0: ebb8 0b3e 7a1a 443d 711e f03d 91fc 01be
000002d0: 206a 833c 8006 2a3b 69eb afbd ee5d 3cbd
000002e0: 926a 33bd 1536 f33d f63c 1cbe 7e6a 52be
000002f0: 7752 16bd d6d7 ecbc 22fe a0bd 5ee5 513b
00000300: 4871 833c a3ae 973c 56b0 6cbd b384 c3bc
00000310: 6b28 9d3d 196f 033e c74d 013d f6d6 b0be
00000320: f63b b53c 0f0d 48be ebbd 0ebd 0024 263e
00000330: a572 2ebd 34a2 883d b7b4 27be e188 ff3b
00000340: 4991 b9bc 2e3e 6a3d 61fe 393d 2f37 7f3d
00000350: 937a 81bc 2b93 2fbd be6b ef3c d1c5 f83d
00000360: e791 1cbb e76a c5bd b82f a53c ab50 d8bd
00000370: e333 f73d f274 04be 2257 9ebc 40a7 2b3d
00000380: 75c9 ce3d 56b4 52bd 81b8 2d3e b7f6 ce3c
00000390: 1511 bfbd d6b6 3fbd 5e62 a8bd bfc3 4fbe
000003a0: 5ff1 2ebe 4ef0 50bc 11c1 e6bd 9aca 71bd
000003b0: 13e9 b23d f1ed 2c3e 7244 7e3e 4c42 d7bc
000003c0: 496c 8f3c 311a e3bd 305f e73d 295d 94bd
000003d0: 337c bbbc 6caf bdbd ea09 893d 9128 6a3b
000003e0: 02a2 3a3e f93e 9ebd d802 1c3c 4450 d93c
000003f0: 6a2a d53d 5268 153d a379 553e 510a adbd

dense3.bias f4 [30]
0.03576239 0.020116322 0.044243608 0.03603151 0.0036416592 -0.03817959 -0.008800716 -0.018100502
0.017722532 -0.058691915 0.04686374 -0.007927916 0.054837875 0.03279504 0.0015836378 -0.003355587
-0.015245311 0.026335355 0.046126842 -0.043287363 0.032905057 -0.038642824 -0.001640711 0.010483182
0.047194753 0.022906067 -0.040346786 0.036933843 -0.009921321 -0.012116848
00000000: 957b 123d fcca a43c c938 353d c795 133d
00000010: e7a8 6e3b 3462 1cbd e130 10bc 8147 94bc
00000020: d82e 913c ef66 70bd 31f4 3f3d 17e4 01bc
00000030: ae9d 603d 1854 063d 1192 cf3a 68e9 5bbb
00000040: 78c7 79bc 3ebd d73c 80ef 3c3d 174e 31bd
00000050: 74c7 063d f047 1ebd 200d d7ba a7c1 2b3c
00000060: 494f 413d 81a5 bb3c ac42 25bd f147 173d
00000070: 098d 22bc be85 46bc

dense4.weight f4 [30, 768]
0.08825819 0.13320354 0.092428625 0.10316391 -0.039599307 -0.091371365 0.12782975 -0.009172761
-0.12140934 -0.066499814 0.049675144 0.080607794 0.026587434 0.08849987 0.09268478 0.13948403
0.10638339 0.017899109 0.021108974 0.07198246 0.04427836 -0.052267727 -0.05721507 0.009919831
-0.02939645 0.07880631 0.022376062 -0.009288181 0.021456078 0.08144344 -0.024686279 -0.065013506
-0.06468885 -0.032255016 0.06250107 0.07331602 0.04104786 -0.041905895 -0.02250484 -0.04713172
-0.017501544 0.1592317 0.06813046 -0.037797794 -0.05259594 0.055218305 -0.056816444 0.10648039
0.0957764 0.0085454155 0.060213607 0.00020110306 0.020947535 0.073413104 -0.085884444 0.031566244
-0.10011552 -0.006743575 0.06486804 0.14247364 -0.08051768 -0.01352396 -0.0848964 0.019771805
0.036525417 -0.054127 0.057256494 -0.10213178 0.07140702 -0.21028371 0.09022416 0.06035054
-0.021798683 -0.030084563 0.1341329 0.027921256 -0.025171483 -0.037098467 -0.063122936 -0.02224475
-0.121055715 -0.104578696 0.07264731 -0.06293358 -0.034082517 0.024103839 -0.08472693 -0.093423866
0.13010849 -0.08927543 0.01797923 0.0666939 -0.08244395 0.13130943 0.14667512 -0.025576385
0.06442856 -0.045622986 0.044279557 0.063083716 0.081872255 -0.05998414 -0.06559229 -0.05951238
0.081835255 -0.05055677 0.0012618074 -0.08903023 0.0039499076 0.1109803 -0.007903962 -0.074201636
0.020510526 -0.04378229 0.06266284 -0.05933113 -0.048640933 -0.009841464 -0.097749434 -0.19791144
0.11625494 -0.06123305 0.073407724 -0.0054720803 0.07489285 -0.019594226 -0.08222982 -0.07114783
0.058732785 0.044284925 -0.06970948 0.08279326 0.02158633 -0.12597345 -0.10676585 -0.011475468
-0.064292 -0.054972876 0.03555208 -0.086051844 0.030786794 0.06663955 -0.005868012 -0.00900179
-0.049035814 0.10245491 0.06854416 -0.029798344 0.065995745 0.027409494 0.011103829 0.108959116
-0.085463904 -0.14186385 -0.0047230064 0.02252084 -0.048287172 -0.07712603 0.027171792 -0.014023764
0.048140883 0.062193297 0.0693489 -0.00030342388 0.14314713 0.06673001 -0.030647833 0.16224685
0.06764515 -0.07218876 -0.11130921 0.10405921 -0.081686914 0.008425887 -0.04916157 0.13029952
0.04627467 -0.031675965 0.04756965 0.027743882 -0.14438826 0.109484114 -0.0063879564 -0.08144035
0.04517566 0.011388844 -0.12875935 0.08808028 0.24607818 -0.08821695 0.010486122 0.16261691
-0.1441721 -0.028163923 -0.10115211 0.08683569 -0.036872435 0.14190847 0.16500741 -0.0012522102
-0.040650167 0.013158669 -0.033300333 -0.009698025 0.048267756 -0.05654798 0.054959808 0.08285253
-0.0020944746 -0.0741519 0.017880594 -0.09077964 0.045031548 0.038194716 0.058858834 -0.004183772
0.004349939 0.04635675 -0.07195487 -0.016030446 -0.096407816 0.0957828 0.13346736 -0.049333494
-0.015513471 -0.06647566 0.08409686 0.041065454 0.03602029 0.08201164 0.00746458 0.09575884
-0.0123765385 -0.056854233 0.012586294 0.18835568 0.0616913 -0.01752791 0.09309191 -0.15363379
0.068624996 -0.06220922 -0.039181486 -0.045934334 -0.046929583 0.00787861 -0.007758612 -0.016242879
0.072655685 0.03772829 -0.04792926 0.08030084 -0.06417344 -0.00024293453 -0.06407529 0.0066115004
00000000: b6c0 b43d 8266 083e 384b bd3d 9a47 d33d
00000010: e232 22bd e920 bbbd cde5 023e 5949 16bc
00000020: 76a5 f8bd 0e31 88bd 2a78 4b3d b315 a53d
00000030: e4cd d93c 6b3f b53d 85d1 bd3d e7d4 0e3e
00000040: 89df d93d 27a1 923c baec ac3c 8a6b 933d
00000050: 3a5d 353d af16 56bd 595a 6abd c986 223c
00000060: d3d0 f0bc 3465 a13d 014e b73c 742d 18bc
00000070: a8c4 af3c d1cb a63d e13a cabc cd25 85bd
00000080: 967b 84bd d61d 04bd 9000 803d b626 963d
00000090: cd21 283d 84a5 2bbd 125c b8bc 310d 41bd
000000a0: 665f 8fbc a20d 233e fc87 8b3d dcd1 1abd
000000b0: d76e 57bd 972c 623d 5cb8 68bd 6412 da3d
000000c0: 6b26 c43d 1202 0c3c 8ba2 763d 31df 5239
000000d0: 2a9a ab3c 9c59 963d 2fe4 afbd 9b4b 013d
000000e0: 5e09 cdbd 35f9 dcbb 89d9 843d 9ce4 113e
000000f0: 74e6 a4bd 9993 5dbc 2ade adbd 7bf8 a13c
00000100: ad9b 153d 46b4 5dbd c985 6a3d 772a d1bd
00000110: d83d 923d 9d54 57be 72c7 b83d 2132 773d
00000120: 2793 b2bc e773 f6bc 235a 093e 1ebb e43c
00000130: 6d34 cebc 90f4 17bd 9946 81bd 9f3a b6bc
00000140: 0fec f7bd 5b2d d6bd 1dc8 943d 52e3 80bd
00000150: 1c9a 0bbd 6a75 c53c 5085 adbd 0355 bfbd
00000160: 293b 053e 09d6 b6bd 2e49 933c d096 883d
00000170: 60d8 a8bd fb75 063e 0132 163e 9185 d1bc
00000180: 1ff3 833d 2bdf 3abd 7b5e 353d 0932 813d
00000190: a4ac a73d eeb1 75bd 4055 86bd 41c3 73bd
000001a0: 3e99 a73d 9e14 4fbd 3b63 a53a 7b55 b6bd
000001b0: 3a6e 813b a449 e33d 9f7f 01bc 07f7 97bd
000001c0: b105 a83c 0f55 33bd 6055 803d 3305 73bd
000001d0: b73b 47bd 183e 21bc db30 c8bd 4ca9 4abe
000001e0: 1217 ee3d 82cf 7abd ca56 963d 234f b3bb
000001f0: 6c61 993d 1284 a0bc 1c68 a8bd f4b5 91bd
00000200: ca91 703d 1c64 353d d8c3 8ebd 838f a93d
00000210: d1d5 b03c 2fff 00be 0ea8 dabd 9a03 3cbc
00000220: 86ab 83bd 3d2b 61bd 0f9f 113d f33b b0bd
00000230: 9634 fc3c 517a 883d 7448 c0bb 3e7c 13bc
00000240: c7d9 48bd e1d3 d13d e160 8c3d a81b f4bc
00000250: c728 873d e089 e03c d6ec 353c f525 df3d
00000260: b307 afbd c244 11be 73c3 9abb a07d b83c
00000270: c5c8 45bd 41f4 9dbd 6197 de3c eec3 65bc
00000280: 602f 453d 66be 7e3d cc06 8e3d dd14 9fb9
00000290: 2995 123e bea9 883d 2a11 fbbc 0a24 263e
000002a0: 8a89 8a3d b3d7 93bd 15f6 e3bd ff1c d53d
000002b0: 784b a7bd bb0c 0a3c a45d 49bd 3d6d 053e
000002c0: 828a 3d3d a8be 01bd 65d8 423d 2347 e33c
000002d0: 84da 13be 3539 e03d 1052 d1bb 33ca a6bd
000002e0: 1d0a 393d 4698 3a3c 7ed9 03be 6f63 b43d
000002f0: ebfb 7b3e 17ab b4bd fccd 2b3c 0c85 263e
00000300: daa1 13be 07b8 e6bc d628 cfbd e9d6 b13d
00000310: 8d07 17bd 7450 113e b4f7 283e 3421 a4ba
00000320: ca80 26bd 7597 573c ee65 08bd 77e4 1ebc
00000330: 69b4 453d db9e 67bd 891d 613d 96ae a93d
00000340: 7443 09bb f4dc 97bd 537a 923c adea b9bd
00000350: 0073 383d 1072 1c3d f615 713d 0618 89bb
00000360: ef89 8e3b 93e0 3d3d 135d 93bd 4852 83bc
00000370: 7671 c5bd c629 c43d abab 083e eb11 4abd
00000380: 372c 7ebc 6424 88bd f93a ac3d 4034 283d
00000390: 038a 133d b8f5 a73d 6f99 f43b 361d c43d
000003a0: f7c6 4abc fcdf 68bd be36 4e3c 50e0 403e
000003b0: 04b0 7c3d b196 8fbc f9a6 be3d 2d52 1dbe
000003c0: 438b 8c3d 18cf 7ebd c47c 20bd a425 3cbd
000003d0: 3c39 40bd 4915 013c f43b febb c90f 85bc
000003e0: 81cc 943d fb88 1a3d 7951 44bd c474 a43d
000003f0: 5d6d 83bd 3ebc 7eb9 e839 83bd 49a5 d83b

dense4.bias f4 [30]
-0.01625074 -0.010160917 0.021072926 0.02389595 -0.008495441 -0.04202494 0.05963567 -0.05850684
0.023657247 0.00829234 0.0049653533 -0.010705222 -0.008932848 -0.034210548 0.010762046 -0.038499318
-0.011166625 -0.011194028 0.03767699 0.043196607 -0.006893981 0.044743158 -0.034263223 0.017084906
0.0016267746 -0.01852665 0.019124003 0.038057268 0.011868442 -0.0105868215
00000000: 4620 85bc fa79 26bc 21a1 ac3c 70c1 c33c
00000010: 7630 0bbc 5822 2cbd 8844 743d dea4 6fbd
00000020: d8cc c13c 98dc 073c 67b4 a23b f564 2fbc
00000030: 155b 12bc 5c20 0cbd 4b53 303c 76b1 1dbd
00000040: 38f4 36bc 2867 37bc 3053 1a3d edee 303d
00000050: e7e6 e1bb 9a44 373d 9857 0cbd a5f5 8b3c
00000060: 7f39 d53a 33c5 97bc f1a9 9c3c f0e1 1b3d
00000070: db73 423c 5974 2dbc

dense5.weight f4 [30, 768]
-0.0074714515 -0.15064631 -0.053876355 -0.13447405 0.05516224 -0.03194442 -0.25922212 -0.041514866
-0.08735333 0.13351862 0.08261685 0.09821377 -0.02543724 -0.05033691 0.13716835 -0.13159437
-0.015568964 -0.009454654 -0.10661351 -0.08017157 0.10473029 -0.016998196 -0.059059545 0.06211313
0.07574682 -0.027371235 -0.0014466034 0.022934688 0.26114607 0.087386936 0.036027543 -0.020213997
0.07475402 0.049625292 -0.124304935 0.039265636 0.15049838 0.10297713 -0.009015315 0.038093362
-0.12004305 -0.044303834 0.23135921 0.12801886 -0.03072352 0.0699221 -0.07768293 -0.0075295107
0.00044308562 -0.065014146 -0.043682154 0.13977078 -0.092623934 0.016358642 -0.012020038 0.05841931
0.012937227 -0.001946149 0.18702544 -0.047649104 -0.055450387 -0.06184987 0.06730829 0.0444351
0.011185548 0.03356529 0.06428165 0.06756416 -0.07266557 0.011038554 -0.0068365266 -0.012242654
-0.08091918 0.18533683 0.17159319 0.14206372 0.053675063 0.023391811 -0.12161496 0.046201434
-0.03180974 0.16505958 -0.082800664 -0.075648345 -0.15653993 -0.064600416 0.18475772 -0.0484877
0.102132924 0.16133386 -0.014964129 -0.05533082 0.036450304 0.034502454 -0.040710084 0.053222198
-0.04892926 0.078623414 -0.22000106 -0.026107362 0.04485339 -0.04045529 0.059369277 0.09173345
-0.025277054 -0.118955635 0.08522383 -0.0086192805 -0.023721693 -0.1134164 0.08773086 0.098073564
0.09911704 0.019311545 -0.038255267 -0.037475966 0.17459273 -0.012108374 0.07711584 -0.16711223
-0.06255754 0.081468344 -0.046676386 -0.04934315 0.066348515 -0.07390708 0.07501349 -0.046450567
-0.27688056 -0.012243257 0.05074093 -0.12735426 -0.059865877 -0.009540551 0.121508375 0.08996657
0.09310152 0.0050759204 0.013162362 -0.0022625187 -0.17518921 -0.017454915 0.0633567 0.009526219
0.08684047 -0.0035933806 -0.05034138 -0.13046163 -0.15077446 -0.09758838 -0.09151792 0.02049824
-0.10134993 -0.002936343 -0.064056434 -0.08508019 0.03862088 0.18044096 -0.013739602 -0.01880151
0.086834975 0.13818057 -0.12542368 0.022644242 0.042201176 -0.0637059 -0.054237504 -0.2971162
-0.01675237 -0.0046010683 0.07117989 -0.009287674 -0.116503 -0.047452874 -0.046986267 0.13111308
-0.02962243 0.067148864 -0.08094348 0.08181841 0.03727353 -0.062474735 0.05700152 -0.07691656
0.03982765 -0.0929734 0.0914687 0.01545476 -0.027684445 -0.08860254 -0.16221891 0.065231
-0.049991176 -0.013713961 0.0036494734 -0.06575207 -0.001859594 0.020319859 -0.078575484 0.060210414
-0.035083346 -0.14396316 0.039320726 0.07668616 -0.035186425 0.08971007 -0.009683208 -0.24260475
-0.06801609 0.20466138 0.12270015 0.05383232 0.0036784187 -0.06330773 0.12545183 0.00028115223
0.04341348 -0.07212395 0.07447712 -0.20033398 -0.19631815 0.02541106 -0.059037723 -0.17266002
-0.058782812 0.09788417 -0.047510173 -0.06739385 0.07702268 -0.04261903 -0.016837822 -0.14956565
-0.08717403 0.08140514 0.09807395 0.06973186 -0.10523332 0.017212112 0.036030706 -0.0066445237
0.05672811 0.046989582 -0.009927516 0.03220579 -0.076620236 -0.027911313 0.06611492 0.058608018
-0.043497276 0.04073626 -0.072410166 0.12910084 -0.07917445 -0.019609097 -0.063234374 0.096525036
00000000: 14d3 f4bb 0743 1abe 74ad 5cbd 91b3 09be
00000010: cdf1 613d 27d8 02bd c3b8 84be 7e0b 2abd
00000020: 4de6 b2bd 1bb9 083e 0633 a93d 4d24 c93d
00000030: c261 d0bc 132e 4ebd dc75 0c3e adc0 06be
00000040: f814 7fbc b1e7 1abc 2f58 dabd fe30 a4bd
00000050: d67c d63d cd3f 8bbc 6ce8 71bd 566a 7e3d
00000060: 2621 9b3d a439 e0bc f59b bdba 87e1 bb3c
00000070: f0b4 853e ecf7 b23d 9e91 133d d397 a5bc
00000080: a318 993d e443 4b3d 9693 febd 01d5 203d
00000090: 3f1c 1a3e ace5 d23d f9b4 13bc c907 1c3d
000000a0: 21d9 f5bd f077 35bd 6ee9 6c3e 6017 033e
000000b0: e4af fbbc 5133 8f3d 3a18 9fbd 1dba f6bb
000000c0: f24d e839 2326 85bd 0fec 32bd 1220 0f3e
000000d0: 9eb1 bdbd 8f02 863c b2ef 44bc 1649 6f3d
000000e0: aaf6 533c ed15 ffba 9983 3f3e b52b 43bd
000000f0: f21f 63bd 4a56 7dbd eed8 893d 9401 363d
00000100: 9743 373c c27b 093d 19a6 833d 145f 8a3d
00000110: b0d1 94bd 0ddb 343c f104 e0bb 6a95 48bc
00000120: f4b8 a5bd f0c8 3d3e 20b6 2f3e 2779 113e
00000130: 62da 5b3d 2fa0 bf3c 4411 f9bd b73d 3d3d
00000140: ee4a 02bd 6105 293e 6593 a9bd 85ed 9abd
00000150: 014c 20be 394d 84bd 2131 3d3e 0a9b 46bd
00000160: 112b d13d b434 253e 1b2c 75bc 92a2 62bd
00000170: ea4c 153d 7252 0d3d 9ebf 26bd 85ff 593d
00000180: 0c6a 48bd 5005 a13d f547 61be 1bdf d5bc
00000190: 30b8 373d 72b4 25bd 332d 733d bfde bb3d
000001a0: d311 cfbc 039f f3bd d589 ae3d e237 0dbc
000001b0: ff53 c2bc dc46 e8bd 3dac b33d cbda c83d
000001c0: e0fd ca3d 3f33 9e3c 8eb1 1cbd 6680 19bd
000001d0: 70c8 323e 3462 46bc e9ee 9d3d 781f 2bbe
000001e0: 2b1e 80bd e0d8 a63d bd2f 3fbd 0b1c 4abd
000001f0: bbe1 873d 985c 97bd aca0 993d f342 3ebd
00000200: 4ac3 8dbe f197 48bc b9d5 4f3d 2869 02be
00000210: ec35 75bd f94f 1cbc 62d9 f83d 6540 b83d
00000220: 02ac be3d e853 a63b f3a6 573c c446 14bb
00000230: cd64 33be 9cfd 8ebc 28c1 813d dc13 1c3c
00000240: 6bd9 b13d ec7e 6bbb c332 4ebd bc97 05be
00000250: 9f64 1abe 6bdc c7bd bf6d bbbd edeb a73c
00000260: 8d90 cfbd a96f 40bb 0530 83bd 863e aebd
00000270: ee30 1e3d 84c5 383e 111c 61bc a005 9abc
00000280: 89d6 b13d 357f 0d3e 116f 00be 6b80 b93c
00000290: 24db 2c3d 3d78 82bd 2528 5ebd 9d1f 98be
000002a0: 443c 89bc 8fc4 96bb c3c6 913d 542b 18bc
000002b0: 2099 eebd f25d 42bd ac74 40bd 8242 063e
000002c0: bdaa f2bc 5885 893d b2c5 a5bd 6990 a73d
000002d0: 21ac 183d 82e5 7fbd 6d7a 693d 6e86 9dbd
000002e0: 5122 233d d768 bebd f153 bb3d f635 7d3c
000002f0: 7dca e2bc 4075 b5bd b71c 26be d597 853d
00000300: 8cc3 4cbd 85b0 60bc 012c 6f3b 05a9 86bd
00000310: 9fbd f3ba d575 a63c 2fec a0bd 329f 763d
00000320: 8eb3 0fbd 146b 13be c50e 213d a20d 9d3d
00000330: a41f 10bd eab9 b73d 51a6 1ebc 616d 78be
00000340: 054c 8bbd c192 513e 374a fb3d 477f 5c3d
00000350: a011 713b 7ca7 81bd 7276 003e 9d67 9339
00000360: 55d2 313d b9b5 93bd 7687 983d 5a24 4dbe
00000370: a007 49be db2a d03c 8ad1 71bd cacd 30be
00000380: 3fc6 70bd 7f77 c83d 079a 42bd c905 8abd
00000390: 11be 9d3d 4b91 2ebd 79ef 89bc bd27 19be
000003a0: 4c88 b2bd bdb7 a63d ffda c83d 94cf 8e3d
000003b0: 9184 d7bd 6a00 8d3c ef94 133d 4eba d9bb
000003c0: bc5b 683d 2678 403d 05a7 22bc 38ea 033d
000003d0: 12eb 9cbd 44a6 e4bc 4267 873d f60e 703d
000003e0: 332a 32bd 11db 263d c84b 94bd 0333 043e
000003f0: 3726 a2bd 42a3 a0bc 0681 81bd ebae c53d

dense5.bias f4 [30]
-0.022341821 0.056842826 -0.023638716 -0.03147294 0.022834916 0.03327318 0.050569344 0.026500214
-0.023299308 0.0053452975 0.029561302 -0.04273642 -0.016754385 -0.008665673 -0.028920552 -0.016776096
-0.0057667927 0.024491131 0.037345167 0.046682455 0.07743785 0.06825971 0.013175817 0.0410675
-0.020240312 0.001393352 -0.03132522 -0.018886782 0.010811819 0.019764315
00000000: 3206 b7bc 06d4 683d fba5 c1bc c5e9 00bd
00000010: 4a10 bb3c 7549 083d cd21 4f3d fa16 d93c
00000020: 31de bebc 9b27 af3b 8b2a f23c 620c 2fbd
00000030: 7e40 89bc 78fa 0dbc cbea ecbc 066e 89bc
00000040: 5df7 bcbb a0a1 c83c 3ff7 183d 1a36 3f3d
00000050: bc97 9e3d bfcb 8b3d 62df 573c 6536 283d
00000060: 03cf a5bc 23a1 b63a e04e 00bd 74b8 9abc
00000070: 0e24 313c c6e8 a13c

bn1.weight f4 [30]
1.4057479 1.4371752 1.2511683 1.3787334 1.3296689 1.3554783 1.2644128 1.1488664
1.3336356 1.2441733 1.4273283 1.4183615 1.4010221 0.8535518 1.3769675 1.4269135
1.0652115 1.2944343 1.4065187 0.97604823 1.3976153 1.0878774 0.96939844 1.1119857
1.3128244 1.1044906 1.3658521 1.3335589 1.3276818 1.2836707
00000000: 8cef b33f 5bf5 b73f 4826 a03f 567a b03f
00000010: 9732 aa3f 5080 ad3f 47d8 a13f 0e0e 933f
00000020: 92b4 aa3f 1241 9f3f b2b2 b63f df8c b53f
00000030: b154 b33f 5f82 5a3f 7940 b03f 1aa5 b63f
00000040: da58 883f 06b0 a53f ce08 b43f 4cde 793f
00000050: 0fe5 b23f 913f 8b3f 7f2a 783f 8c55 8e3f
00000060: a10a a83f f35f 8d3f 3ed4 ae3f 0fb2 aa3f
00000070: 7af1 a93f 524f a43f

bn1.bias f4 [30]
0.18044674 0.2743799 0.14665577 0.30795717 0.32112882 0.2681955 0.16539471 0.12580508
0.20430934 0.2378561 0.10632041 0.3599163 0.2579151 -0.12886275 0.36105725 0.32565105
0.06071349 0.34905362 0.24612571 -0.054846443 0.2756853 -0.009726885 -0.05401859 -0.07813265
0.285922 -0.08818356 0.3261052 0.24510753 0.28065488 0.19545563
00000000: 08c7 383e 867b 8c3e ee2c 163e 90ac 9d3e
00000010: ff6a a43e ec50 893e 3b5d 293e 0cd3 003e
00000020: 7836 513e 8d90 733e 84be d93d f346 b83e
00000030: 730d 843e 99f4 03be 7fdc b83e bcbb a63e
00000040: b5ae 783d 28b7 b23e 6108 7c3e aaa6 60bd
00000050: a026 8d3e 835d 1fbc 9942 5dbd 0304 a0bd
00000060: 5e64 923e 9599 b4bd 43f7 a63e 78fd 7a3e
00000070: ffb1 8f3e 8525 483e

bn1.running_mean f4 [30]
0.2339858 1.4051689 -1.3069847 -0.013399009 1.5353128 1.2738612 -2.614498 -3.0166376
-3.4632258 -2.3476543 1.4841105 2.2773404 -2.3158424 -4.545322 3.0448189 -2.6586144
-3.1516674 -0.26733023 0.08628196 -3.5225368 -0.87296957 -1.71798 -2.7155879 -0.6480474
-0.52222896 -0.110170715 -0.124273084 -0.34975502 -3.8589244 -0.2855319
00000000: f999 6f3e 93dc b33f 464b a7bf 8487 5bbc
00000010: 2185 c43f e20d a33f ef53 27c0 9710 41c0
00000020: 7ea5 5dc0 f83f 16c0 55f7 bd3f f2bf 1140
00000030: c336 14c0 4773 91c0 50de 4240 bd26 2ac0
00000040: ebb4 49c0 82df 88be 99b4 b03d 3e71 61c0
00000050: ef7a 5fbf c5e6 dbbf 31cc 2dc0 6fe6 25bf
00000060: ccb0 05bf 2fa1 e1bd e382 febd 1713 b3be
00000070: 9ef8 76c0 3d31 92be

bn1.running_var f4 [30]
0.441975 0.26800516 0.31558716 0.2835345 1.8224185 0.3248805 0.60925424 3.6702898
1.0030296 1.0254375 0.576591 0.70223856 0.3142702 2.6678963 0.95660776 0.5318071
2.9737904 1.3838665 0.22094043 1.3844589 0.4292307 0.74348015 1.511282 0.22194251
0.2667348 0.20439361 0.5159658 0.31682378 0.6890189 0.7261921
00000000: 8c4a e23e f937 893e a494 a13e 6f2b 913e
00000010: 0245 e93f bd56 a63e 16f8 1b3f 07e6 6a40
00000020: 4663 803f 8941 833f 789b 133f e8c5 333f
00000030: 06e8 a03e d0be 2a40 3fe4 743f 8324 083f
00000040: 9552 3e40 8a22 b13f 353e 623e f335 b13f
00000050: 20c4 db3e b754 3e3f b071 c13f e644 633e
00000060: 7791 883e 8f4c 513e 5616 043f ba36 a23e
00000070: 8b63 303f bae7 393f

bn2.weight f4 [30]
1.3368629 1.332813 1.3005646 1.2997683 1.1045791 1.298574 1.2283573 1.1828344
1.3088874 1.3526422 1.3834351 1.3948746 1.3319597 1.2987913 1.3422014 1.3474706
1.283495 1.321969 1.242865 1.139416 1.3746446 1.130618 1.3549385 1.3609058
1.3215268 1.354993 1.3362181 1.2973409 1.2611047 1.3403573
00000000: 531e ab3f 9e99 aa3f e778 a63f cf5e a63f
00000010: d962 8d3f ac37 a63f d03a 9d3f 1e67 973f
00000020: 9f89 a73f 6123 ad3f 6714 b13f 408b b23f
00000030: a87d aa3f cb3e a63f 41cd ab3f eb79 ac3f
00000040: 9049 a43f 4836 a93f 3316 9f3f 62d8 913f
00000050: 5bf4 af3f 17b8 903f a06e ad3f 2932 ae3f
00000060: ca27 a93f 6970 ad3f 3209 ab3f 440f a63f
00000070: e16b a13f d490 ab3f

bn2.bias f4 [30]
0.17435394 0.0814354 0.27463642 0.13523823 -0.13376671 -0.025202647 -0.034458198 0.14348882
0.13287956 0.107572965 0.33189848 0.3399917 0.21557498 0.028180059 0.013564288 0.3224746
0.20590803 0.20786165 -0.047982328 -0.091918126 0.2774556 -0.030270804 0.14755163 0.17894715
0.17519298 0.2965244 0.23277533 0.13680221 0.12335368 0.16394666
00000000: d789 323e 9ac7 a63d 259d 8c3e e47b 0a3e
00000010: 24fa 08be c875 cebc 0a24 0dbd bcee 123e
00000020: 9411 083e 374f dc3d 99ee a93e 6413 ae3e
00000030: b0bf 5c3e ded9 e63c bf3c 5e3c 641b a53e
00000040: 8ed9 523e afd9 543e 1e89 44bd 923f bcbd
00000050: a90e 8e3e 7afa f7bc c617 173e ec3d 373e
00000060: ca65 333e 0cd2 973e a85c 6e3e e115 0c3e
00000070: dba0 fc3d a2e1 273e

bn2.running_mean f4 [30]
-1.5029135 -0.98141366 -1.3158592 -1.4511955 2.1158316 -0.3690342 0.26602468 -0.6327458
0.6066174 0.5962063 -2.003491 1.1211959 -0.05665939 0.10131738 1.823218 1.016783
0.1492214 -0.293101 2.2342293 0.12214142 -1.3146315 0.4034943 0.18411842 -2.7779214
-0.22019947 -0.9340706 -1.4646137 1.3654171 -0.35015482 -0.5275481
00000000: 785f c0bf ed3d 7bbf 136e a8bf c6c0 b9bf
00000010: c969 0740 0df2 bcbe 6334 883e a1fb 21bf
00000020: 474b 1b3f faa0 183f 3239 00c0 5983 8f3f
00000030: ad13 68bd 7d7f cf3d 355f e93f f225 823f
00000040: 7fcd 183e 5611 96be 9dfd 0e40 4825 fa3d
00000050: d845 a8bf ce96 ce3e 8a89 3c3e 77c9 31c0
00000060: f87b 61be 401f 6fbf 7678 bbbf fdc5 ae3f
00000070: 7e47 b3be 640d 07bf

bn2.running_var f4 [30]
0.2663574 0.20682877 0.305389 0.354944 0.72491753 0.18871997 0.16099136 0.58862835
0.81874967 0.5183142 0.34382054 0.04269523 0.22803055 0.18512651 0.10742212 0.05794974
0.25398 0.12434279 1.1164964 0.3264575 0.22519705 1.088982 0.1855888 0.21225505
0.6711209 0.36492416 0.15697318 0.1676524 0.18796489 0.11639539
00000000: ff5f 883e ecca 533e f25b 9c3e 38bb b53e
00000010: 3294 393f cf3f 413e ebda 243e 59b0 163f
00000020: 9499 513f 3db0 043f 3f09 b03e 32e1 2e3d
00000030: d780 693e ce91 3d3e 2100 dc3d b55c 6d3d
00000040: ab09 823e 6fa7 fe3d 5be9 8e3f 7025 a73e
00000050: 0e9a 663e c363 8b3f fe0a 3e3e 6359 593e
00000060: 94ce 2b3f 57d7 ba3e 94bd 203e 12ad 2b3e
00000070: de79 403e b560 ee3d

bn3.weight f4 [30]
1.3100337 1.2192179 1.3233032 1.2889222 1.1490853 1.3481143 1.3348625 1.0682604
1.3366842 1.131382 1.385274 1.4027172 1.3441455 1.1258358 1.3787732 1.1887019
1.2489446 1.3078965 1.2561508 1.1013913 1.4206653 1.4026662 1.3587381 0.9930694
1.4247237 1.3738779 1.0908773 1.402212 1.2834096 1.2819152
00000000: 2faf a73f 550f 9c3f 0062 a93f 67fb a43f
00000010: 3a15 933f 028f ac3f c6dc aa3f c2bc 883f
00000020: 7818 ab3f 20d1 903f a950 b13f 3d8c b33f
00000030: f60c ac3f 631b 903f a47b b03f 6227 983f
00000040: 6bdd 9f3f 2769 a73f 8dc9 a03f 64fa 8c3f
00000050: 5cd8 b53f 918a b33f 21eb ad3f cc39 7e3f
00000060: 595d b63f 3bdb af3f dea1 8b3f af7b b33f
00000070: c446 a43f cc15 a43f

bn3.bias f4 [30]
0.16919547 -0.057222545 0.21184443 -0.0039397986 0.079132855 0.21753976 0.16228098 -0.18097144
0.1720747 -0.10680401 0.30105433 0.32012397 0.22710185 -0.011305018 0.25957298 -0.10467279
-0.048888277 0.24865845 -0.123804815 -0.041415315 0.3453999 0.20325942 0.13094617 -0.09472712
0.18297862 0.30216345 -0.22681512 0.33765215 0.22208542 0.15931818
00000000: 9441 2d3e 3062 6abd bfed 583e 6d19 81bb
00000010: 6810 a23d bec2 5e3e fc2c 263e 9450 39be
00000020: 5a34 303e 10bc dabd cb23 9a3e 4ae7 a33e
00000030: 638d 683e af38 39bc c0e6 843e b05e d6bd
00000040: 133f 48bd 52a0 7e3e 618d fdbd 1ba3 29bd
00000050: 41d8 b03e 3d23 503e c116 063e 4b00 c2bd
00000060: bf5e 3b3e 2bb5 9a3e 3942 68be bee0 ac3e
00000070: 5c6a 633e 4e24 233e

bn3.running_mean f4 [30]
-0.7198693 1.2843893 -1.1182668 0.6237025 0.020883039 0.8198469 0.6332992 -0.9200663
-1.1871203 -1.0423145 -2.9281073 -1.1119304 -0.54656637 -0.7366038 -0.89697176 0.5510189
1.058148 -4.6754193 1.2364898 0.5295943 0.57667637 0.3169402 2.7510164 1.4742002
-2.2164373 -1.561442 0.014831854 1.3033271 -5.3481283 -1.0894276
00000000: 5b49 38bf de66 a43f 5e23 8fbf f8aa 1f3f
00000010: e812 ab3c 7de1 513f e51f 223f 7789 6bbf
00000020: 8ff3 97bf 906a 85bf 1c66 3bc0 bc53 8ebf
00000030: c6eb 0bbf 1192 3cbf f19f 65bf 930f 0d3f
00000040: 6571 873f 099d 95c0 4c45 9e3f 7e93 073f
00000050: 10a1 133f fc45 a23e a710 3040 98b2 bc3f
00000060: 1cda 0dc0 55dd c7bf 4e01 733c 6cd3 a63f
00000070: de23 abc0 5d72 8bbf

bn3.running_var f4 [30]
0.19876018 0.104358844 0.5721348 0.13580751 1.2942629 0.16841978 0.24281856 1.6789573
0.16058987 0.40089452 0.37915823 0.2758892 0.66816425 0.66528684 0.79145956 0.07976696
0.54309046 1.0666387 0.07826747 0.26400936 0.21474582 0.33062196 0.72243625 1.1865766
0.42503336 0.33160606 0.78991437 0.20156111 1.0260699 0.14822492
00000000: ca87 4b3e 17ba d53d 6d77 123f 2011 0b3e
00000010: 68aa a53f 3c76 2c3e 6ea5 783e 13e8 d63f
00000020: ac71 243e 0c42 cd3e 0721 c23e 5941 8d3e
00000030: d00c 2b3f 3d50 2a3f 189d 4a3f dc5c a33d
00000040: fa07 0b3f 9e87 883f b24a a03d 3c2c 873e
00000050: 54e6 5b3e 4847 a93e 95f1 383f bee1 973f
00000060: f99d d93e 45c8 a93e d437 4a3f 0966 4e3e
00000070: 4256 833f 46c8 173e

bn4.weight f4 [30]
1.2800798 1.3566447 1.4185296 1.0809504 1.1065387 1.371589 1.3364232 0.9488005
1.3416334 1.2304196 1.3143839 1.2844561 1.4451094 0.8970492 0.90183806 1.1016982
1.1271085 0.97930527 1.3952384 1.3044397 1.4280372 1.419042 1.1750364 1.1357948
1.08024 1.2815033 1.3330234 1.2131686 1.3256205 1.368651
00000000: a8d9 a33f 89a6 ad3f 6192 b53f 955c 8a3f
00000010: 0fa3 8d3f 3a90 af3f ea0f ab3f 97e4 723f
00000020: a5ba ab3f 647e 9d3f bb3d a83f 0f69 a43f
00000030: 58f9 b83f 04a5 653f dcde 663f 7204 8d3f
00000040: 1745 903f c0b3 7a3f 2c97 b23f e1f7 a63f
00000050: ecc9 b63f 2ba3 b53f 9867 963f b961 913f
00000060: 4e45 8a3f 4d08 a43f 83a0 aa3f 1c49 9b3f
00000070: efad a93f f52f af3f

bn4.bias f4 [30]
0.307273 0.13887607 0.3904533 -0.042248316 -0.075808056 0.18961877 0.21886672 -0.10272012
0.18618028 0.27306262 0.1729767 0.16042918 0.38564092 -0.16025981 -0.09823035 -0.16659713
0.16619799 -0.005865184 0.35879672 0.29303265 0.34553516 0.36014727 -0.18358223 -0.10021155
-0.026192402 0.20856531 0.11164145 0.10701243 0.2980666 0.3236934
00000000: e352 9d3e 8735 0e3e 7fe9 c73e 920c 2dbd
00000010: 4141 9bbd 6c2b 423e 991e 603e ed5e d2bd
00000020: 0ba6 3e3e ddce 8b3e ce20 313e 8c47 243e
00000030: ba72 c53e 261b 24be fe2c c9bd 7098 2abe
00000040: ce2f 2a3e bb30 c0bb 34b4 b73e 6008 963e
00000050: fce9 b03e 3965 b83e fbfc 3bbe b73b cdbd
00000060: 7391 d6bc 2592 553e 46a4 e43d 5529 db3d
00000070: 2f9c 983e 24bb a53e

bn4.running_mean f4 [30]
-1.4984391 0.09509483 0.5448713 0.0067079146 -1.675699 2.3830254 -0.63934165 -0.4857574
1.864374 -1.5498962 -0.91922224 1.9203575 1.1194717 -1.1729048 -1.7724109 0.4756382
0.060981676 0.29725453 0.510275 -0.011962265 -0.62053686 -1.3585914 -0.5770804 2.8825777
2.199695 -0.5941689 1.7399294 2.7333736 0.6520969 1.8977598
00000000: dacc bfbf 14c1 c23d af7c 0b3f 11ce db3b
00000010: 4e7d d6bf 7d83 1840 e5ab 23bf 32b5 f8be
00000020: cfa3 ee3f 0063 c6bf 2652 6bbf 46ce f53f
00000030: d94a 8f3f bf21 96bf 5cde e2bf da86 f33e
00000040: ecc7 793d bf31 983e 62a1 023f 60fd 43bc
00000050: 81db 1ebf 53e6 adbf 8bbb 13bf 277c 3840
00000060: cec7 0c40 741b 18bf 02b6 de3f 98ef 2e40
00000070: d3ef 263f cbe9 f23f

bn4.running_var f4 [30]
0.7277778 0.28226784 0.16208057 0.41887066 0.122444235 0.29129812 0.47776005 1.2454116
0.5754449 1.725048 0.20172518 0.4176809 0.18698955 0.8006298 1.6283883 0.23721541
0.99746966 0.83202046 0.12840958 0.91217726 0.19269063 0.14356217 0.13194874 1.9944726
1.6434814 0.2789962 0.3860466 2.164535 1.1497337 0.19486247
00000000: a54f 3a3f 6985 903e 73f8 253e 3776 d63e
00000010: 0bc4 fa3d 0725 953e f79c f43e a669 9f3f
00000020: 5b50 133f 5fce dc3f 0c91 4e3e 45da d53e
00000030: 307a 3f3e 13f6 4c3f 076f d03f 99e8 723e
00000040: 2c5a 7f3f 4bff 543f cd7d 033e 7384 693f
00000050: b150 453e f601 133e 921d 073e e14a ff3f
00000060: 995d d23f 97d8 8e3e e6a7 c53e be87 0a40
00000070: 792a 933f 078a 473e

bn5.weight f4 [30]
1.2596192 1.2701261 1.1596898 1.0250458 1.4067212 1.3362595 1.2983259 1.3557099
1.3106173 1.2268219 1.1581585 1.2053883 1.1986233 1.360452 1.3557372 1.384548
0.9335832 1.4144578 1.363599 1.3436135 1.3265674 1.2825289 1.3176973 1.3652858
1.388088 1.1771593 1.2087802 1.3893209 1.3608226 1.3000656
00000000: 343b a13f 7e93 a23f b770 943f b334 833f
00000010: 710f b43f 8d0a ab3f 8b2f a63f e787 ad3f
00000020: 4fc2 a73f 8008 9d3f 8a3e 943f 2a4a 9a3f
00000030: 7d6c 993f 4b23 ae3f cc88 ad3f de38 b13f
00000040: 4fff 6e3f f40c b53f 698a ae3f 87fb ab3f
00000050: f6cc a93f e829 a43f 4eaa a83f afc1 ae3f
00000060: deac b13f 28ad 963f 4fb9 9a3f 44d5 b13f
00000070: 6f2f ae3f 8d68 a63f

bn5.bias f4 [30]
0.08623495 0.123435125 0.1439819 -0.10209487 0.32037002 -0.012146914 0.23191796 0.28601965
0.2368752 0.01707806 0.038848687 0.15254547 0.017757524 0.28083342 0.30956063 0.31142074
0.12561738 0.36232165 0.26902822 0.29779217 0.20481844 0.2538094 0.31692737 0.21441661
0.28510633 0.025716502 -0.046861675 0.3775297 0.25957102 0.25508136
00000000: f39b b03d 8ecb fc3d fe6f 133e 1d17 d1bd
00000010: 8a07 a43e da03 47bc e77b 6d3e 2b71 923e
00000020: 6a8f 723e 4ae7 8b3c cd1f 1f3d e134 1c3e
00000030: 3a78 913c 66c9 8f3e bb7e 9e3e 8a72 9f3e
00000040: d8a1 003e 3982 b93e 11be 893e 3778 983e
00000050: edbb 513e 4ef3 813e 4e44 a23e 0790 5b3e
00000060: 75f9 913e 6aab d23c 07f2 3fbd 934b c13e
00000070: 7ee6 843e 069a 823e

bn5.running_mean f4 [30]
1.9091061 1.2184751 -1.2782098 3.611843 0.05135928 0.33051273 -1.1911885 -1.226028
0.7339441 3.5383968 1.1744418 0.75194484 0.6782703 -1.4303296 1.0231537 0.76057386
3.1448674 -0.7217287 -0.98618484 -0.08141341 2.8676662 1.6898034 -0.09385026 -0.4654484
-1.2915206 1.1761466 2.8906617 0.5688006 -1.363928 0.2652066
00000000: 975d f43f fef6 9b3f 619c a3bf 7028 6740
00000010: 1c5e 523d f738 a93e dd78 98bf 7cee 9cbf
00000020: c3e3 3b3f 1875 6240 1c54 963f 757f 403f
00000030: 1fa3 2d3f 0a15 b7bf b3f6 823f f8b4 423f
00000040: 8245 4940 36c3 38bf 9c76 7cbf 13bc a6bd
00000050: d887 3740 7a4b d83f 9134 c0bd 414f eebe
00000060: 8c50 a5bf f98b 963f 9a00 3940 eb9c 113f
00000070: 3195 aebf 29c9 873e

bn5.running_var f4 [30]
0.8676867 0.07443986 1.0737493 0.8697426 0.22656894 0.076239526 0.46934786 0.12194333
0.28745365 0.2139104 0.5604618 0.15258041 0.09735994 0.25726372 0.2835493 0.24527232
0.8761675 0.13390514 0.12828536 0.1427448 0.092356406 0.6247395 0.33949274 0.19680637
0.19253269 0.1115238 1.0282238 0.31325343 0.20845611 0.32760087
00000000: b720 5e3f ed73 983d 9e70 893f 73a7 5e3f
00000010: b001 683e 7823 9c3d 5d4e f03e 6dbd f93d
00000020: 202d 933e 540b 5b3e 6d7a 0f3f 0a3e 1c3e
00000030: a664 c73d 12b8 833e 602d 913e ab28 7b3e
00000040: 834c 603f 6e1e 093e 3d5d 033e b12b 123e
00000050: 5b25 bd3d eeee 1f3f fed1 ad3e 9c87 493e
00000060: 4a27 453e 9766 e43d d69c 833f c162 a03e
00000070: 8575 553e 4dbb a73e
